app/src/main/assets/mnist.tflite (tflite, 116608 bytes, 6 tensors)

arith.constant5 f4 [10]
000000 6b 43 17 3c 7d 53 18 3e cc 86 f5 3c a0 1c 1b bd
       0.009232382 0.14875598 0.029971503 -0.037869096
000010 c1 48 11 bd db b2 c5 3c 11 ca 3b bc 51 d8 43 3d
       -0.035469774 0.024133136 -0.011461751 0.047813717
000020 1a 27 c9 bd b4 94 11 bd
       -0.09821911 -0.035542205

arith.constant6 f4 [32, 3, 3, 1]
000000 0a 71 65 3c 50 c2 4b 3e 7e 50 b8 3d 1d 3a b0 bc
       0.014004001 0.19898343 0.08999728 -0.021512086
000010 79 58 46 3e 73 91 ae 3d 91 cb c8 be 40 6d b4 be
       0.19369687 0.08523836 -0.3921781 -0.352396
000020 43 60 73 be a9 8c b0 3d 77 10 3c 3e a3 d3 99 3e
       -0.2376719 0.08620579 0.18365656 0.30044279
000030 fb 5e c1 3a 4c e3 9e bc 7c d9 98 bd 14 44 1c be
       0.0014753038 -0.019395493 -0.07463357 -0.15260345
000040 33 31 94 be 42 ca 83 be 86 b1 fb bd 02 96 09 3e
       -0.28943786 -0.25740248 -0.12289719 0.1343613
000050 5b 73 ff 3a 9f 88 7d be d2 bf d8 3d 81 47 fa 3d
       0.0019489335 -0.24759148 0.10583462 0.122206695
000060 9b 98 5c be 8d 10 f9 3d aa dd 17 3e 90 97 0a 3d
       -0.2154259 0.1216136 0.14830652 0.033835948
000070 b5 a3 74 3e d8 1b 28 3e f9 ef 80 be 0d 23 d1 bd
       0.23890574 0.16416872 -0.25183085 -0.102117635
000080 e3 d9 7b 3e f3 65 81 be a5 e1 a5 bd 4f 08 3f 3e
       0.24594836 -0.25273094 -0.08099679 0.18655513
000090 30 32 9e be ce de 03 be a0 2b 17 bd 37 ad c2 be
       -0.30897665 -0.12877962 -0.03690684 -0.38022777
0000a0 5b 42 42 3e 3c f2 66 3d b3 46 26 be 5b 3e 5d 3e
       0.18970625 0.056383356 -0.16237907 0.21605818
0000b0 97 93 9e 3e ea bf b5 3d 75 66 24 be 69 5c 0b be
       0.30971977 0.08874495 -0.1605471 -0.1360947
0000c0 07 54 99 3e 1a 21 2d be b6 30 5a be 8d 1d a7 3e
       0.2994692 -0.16907158 -0.21307644 0.32639733
0000d0 9e 12 df 3d 0c 20 c6 3d 64 ed 2b 3e 76 03 bd 3d
       0.10892223 0.09674081 0.16789776 0.09229176
0000e0 f1 f3 e0 bd 38 3d b2 3e 03 4f c8 bc 7e 44 4f be
       -0.10984028 0.3481233 -0.024451738 -0.20240971
0000f0 e0 6e 1d 3e 66 36 20 be 5a 17 12 bf 7d 8e f2 3d
       0.15374327 -0.15645751 -0.5706688 0.11843584
000100 fd 5f 6c 3e 21 68 b0 bc ad 39 74 be 72 1a 9a be
       0.23083492 -0.021534028 -0.23850127 -0.300983
000110 97 7b 99 be 36 b0 10 3e 10 21 88 3e 73 c7 5d 3d
       -0.29977104 0.14129719 0.26587725 0.054145288
000120 90 04 85 3d 76 5b 5f 3e 82 ab 4e bb 81 de 5d 3e
       0.06495011 0.21812233 -0.0031535332 0.2166691
000130 59 e0 12 3e 7b f7 4f be bd 5d 81 be a9 ff c3 bd
       0.14343394 -0.2030925 -0.2526683 -0.09570248
000140 d5 83 2e 3e 74 c5 24 be 08 9e 41 be 54 ff 9a be
       0.17042477 -0.16090947 -0.1890794 -0.30272925
000150 eb ca 3e 3e 6a 07 d6 bd d9 d4 e8 bb 4d f7 38 3e
       0.18632095 -0.10450633 -0.0071054515 0.18063088
000160 f9 2e 4c 3e 6a 34 2c 3e 60 4a 6e bd 36 06 92 3d
       0.19939794 0.1681687 -0.0581764 0.07130091
000170 33 bb 22 3e 23 a4 0c be da 18 9e bd 6d 5d 56 3e
       0.15891723 -0.13734488 -0.07719584 0.20934077
000180 b7 72 27 3c f4 97 33 be 79 aa 4a bd 98 29 ef 3d
       0.010220221 -0.17538434 -0.04947898 0.11677855
000190 29 0d 37 be f6 c3 ee bd 32 9b aa 3c 6c 07 25 3e
       -0.17876114 -0.1165847 0.020825956 0.16116112
0001a0 17 5f f8 3d a6 0f 14 3d 96 c0 45 3c 9f 89 ff 3d
       0.12127512 0.036147736 0.012069842 0.12477421
0001b0 6a 09 ab 3d 00 ad b9 bd 83 f9 e5 bd 18 e6 4d bd
       0.08351405 -0.090662 -0.11229231 -0.050268263
0001c0 24 73 20 3e cd 24 11 3e 71 ba b4 3d 77 f4 d4 bd
       0.15668923 0.14174195 0.088246234 -0.103981905
0001d0 fa 95 c9 bd e9 55 78 3e 08 10 d2 3c b6 07 58 3e
       -0.09843059 0.24251522 0.02564241 0.21096691
0001e0 ee 36 76 3d c2 f4 23 bd 13 e6 fb 3c ac 89 a1 bd
       0.06011098 -0.04002834 0.030749356 -0.07887587
0001f0 7e 8f 2b be 9a f2 86 be 03 2f a9 be 6a c4 f8 bd
       -0.16753957 -0.26356965 -0.3304368 -0.12146838
000200 da cb 38 3e c2 1b 89 bd c1 52 f2 3d e3 a5 8c 3e
       0.18046513 -0.066947475 0.1183219 0.27470312
000210 47 65 80 bd 6b 7d ec 3d 5d f5 9d bc bd 4d 76 be
       -0.06269317 0.11547359 -0.019282037 -0.24053092
000220 0a b8 ce be 21 c9 b7 bd 47 c3 10 be 5a b9 1c bd
       -0.40374786 -0.08973909 -0.14136992 -0.038262703
000230 07 a6 9f 3d e9 1e 52 3e 84 d9 66 3e ba f0 9f 3e
       0.07795339 0.20519604 0.22543913 0.31238347
000240 3c 87 85 bd f2 66 b1 3d 3f f5 a2 bd b5 b2 88 3e
       -0.065199345 0.086622134 -0.07956933 0.26698843
000250 b3 97 27 3e 16 dc 21 be c4 25 18 3e 1a 7c d0 bd
       0.16366462 -0.15806612 0.14858156 -0.101799205
000260 57 4e 3f 3d 8e ab 28 3d c3 e2 ef 3d d6 cb 4b 3e
       0.04670557 0.041179232 0.11713173 0.19901976
000270 0f 44 a3 be ba 99 13 be 8a 8f ab bb 72 08 44 3d
       -0.31887862 -0.14414111 -0.005235617 0.047859617
000280 73 62 2e be 5a 60 82 be 75 6e 45 3e 00 fd 0a bd
       -0.17029743 -0.25464135 0.19280417 -0.033932686
000290 33 ee 53 3d c4 71 d6 3b cb 59 c0 bd 1b 58 d2 bd
       0.051740836 0.0065443236 -0.09392127 -0.10270711
0002a0 ec ce c5 3c b4 34 1a bc 51 a4 e7 bd 4b 15 b5 bc
       0.02414652 -0.0094119795 -0.11310638 -0.02210488
0002b0 49 6c 11 3e 4b 4d 9e 3e 33 ed 75 be 44 0e 98 bd
       0.14201464 0.30918345 -0.24016266 -0.07424596
0002c0 8a bf ab 3e 2d 58 de be 85 62 ff bd 8f f3 9d 3c
       0.3354457 -0.43426648 -0.12469963 0.019281177
0002d0 5f 4e 1a 3e c1 6c c1 bc b0 58 10 3e 25 c0 6d 3e
       0.15068959 -0.023611428 0.14096332 0.23217829
0002e0 a4 1c d2 bc dc 2b bd 3d 6d 60 b0 bc f5 84 69 be
       -0.025648423 0.09236881 -0.021530354 -0.22804625
0002f0 7a a7 55 be df 0e d5 bd 4f 3f 23 3e ca 61 8f be
       -0.20864668 -0.10403227 0.15942119 -0.28004295
000300 14 cb 2e be ba 05 70 3e 2a b5 6b be 5e 5c 91 3c
       -0.17069656 0.23439685 -0.23018327 0.01774424
000310 52 22 6e 3e 0f 97 a5 3c d0 81 88 be 84 a0 49 be
       0.2325528 0.020213632 -0.2666154 -0.19690138
000320 c4 58 83 bd af 04 90 3e 8e 65 56 3e 5f b8 87 bc
       -0.06413415 0.28128573 0.20937178 -0.016567407
000330 0f 4e 07 3d 8d 9e 8a bd 3c 77 b9 bd 93 03 f7 3c
       0.033033427 -0.067685224 -0.09055945 0.030153072
000340 14 10 80 3e d6 0b 2b 3e c4 15 17 be 95 33 2b 3d
       0.25012267 0.16703734 -0.14754397 0.04179724
000350 a0 21 09 3e d6 dd 68 be 31 ad b8 be df 41 10 be
       0.13391733 -0.22740874 -0.36069635 -0.14087628
000360 eb ed 12 be 36 49 e1 3c be 4a 2d 3e dc 82 70 be
       -0.14348571 0.02750073 0.16923043 -0.23487419
000370 8d de d3 3d a2 16 92 bd 88 21 98 3d 3c e3 d6 3d
       0.103451826 -0.07133223 0.074282706 0.1049256
000380 6c 5e fe bd 32 7b 26 3e e0 e2 4a be 9c 93 cb be
       -0.12420353 0.16257933 -0.19813108 -0.39761055
000390 df c4 58 3d 3e 80 f6 3d 2f 5a 8e bd fb 12 66 3e
       0.052922126 0.12036179 -0.06950795 0.22468178
0003a0 d6 b8 49 3e ef 13 c8 bc 03 5a 5c be f1 e2 94 3c
       0.19699416 -0.024423568 -0.21518712 0.01817462
0003b0 ac d8 c8 3d d9 4c 1e 3e b4 c9 5b 3e 22 04 fe 3d
       0.09806952 0.15459003 0.21463662 0.12403132
0003c0 4d 7d 83 bd 98 36 2d 3b 8e 71 0f bc 8b 48 21 3e
       -0.064203836 0.0026430245 -0.008755101 0.15750329
0003d0 d7 3a 94 3c fc 71 4a bc fc d9 fb 3d c4 ba 8f 3d
       0.018094463 -0.012356278 0.122974366 0.070180446
0003e0 6e f9 0c bc dd 8b 71 bd e0 51 99 3d 89 68 8c 3d
       -0.008604391 -0.058971275 0.074863195 0.06855876
0003f0 a2 da 07 be 09 16 eb 3a eb 54 bb 3d ca 68 ec 3d
       -0.13266996 0.0017935644 0.09147056 0.115434244

arith.constant7 f4 [64]
000000 3d dc 1f bd 51 bf 5f bd 65 71 78 bc a6 73 d3 ba
       -0.039028395 -0.054625813 -0.015163754 -0.0016132488
000010 e4 6d 1f 3b 1a 60 e4 bd fa 0d c7 bc 72 33 21 bb
       0.0024326975 -0.111511424 -0.024298657 -0.0024597314
000020 5f c5 8a bc 78 df 3d bc 7d 89 a3 bd 5b 69 58 bd
       -0.016939817 -0.011588924 -0.07985208 -0.05283485
000030 52 43 32 3c af f3 1c bc 5e d8 44 bd de 9f 3d bd
       0.010880308 -0.009579583 -0.048057906 -0.04629504
000040 5b 21 38 bd de 98 0b bd d2 5f 36 3a 50 ba 16 bd
       -0.044953685 -0.034081332 0.00069570274 -0.036798775
000050 a4 68 8d 3c 40 57 6c 3d ce a4 cf bc 5a fc 45 bd
       0.01726181 0.057700396 -0.02534714 -0.048336364
000060 af d4 c2 bc dc b6 f4 bc ac 5b c1 bd 60 e1 9b bc
       -0.023783056 -0.02987235 -0.09441313 -0.019028366
000070 3b c0 30 3c 8a 20 94 bd cd 9d 20 bd 3e 7c 0c bb
       0.010788019 -0.07232769 -0.03921299 -0.0021436359
000080 82 5d da bd 95 39 b4 bd 83 a2 8d bb ea a7 22 bd
       -0.106623664 -0.088000454 -0.0043223514 -0.039710917
000090 39 cc 3a bd 97 06 1e bd c0 e6 fb bb f2 42 5c bb
       -0.04560492 -0.038580503 -0.0076874197 -0.0033609238
0000a0 96 76 36 3c a5 b4 3d bd c3 52 20 bd 1b 14 0b 3b
       0.0111366715 -0.046314854 -0.039141428 0.00212217
0000b0 fd 1f af bb 42 4a 64 bd 35 a5 c9 bb 6d be 11 bd
       -0.0053443895 -0.05573488 -0.0061537274 -0.035581995
0000c0 dd 23 38 bd 49 37 96 bd e0 a3 87 bb 93 1f d3 bc
       -0.044956077 -0.073347636 -0.0041394085 -0.025771892
0000d0 e9 b1 a6 3d 24 50 54 bd 1e b9 b7 3b 3b 1b 5d 3c
       0.081394024 -0.05183424 0.0056067845 0.013495262
0000e0 dc da 9d bb 7c 6c 1c bd 25 2c 00 bd dd e7 a9 3c
       -0.00481735 -0.038189396 -0.0312921 0.020740444
0000f0 27 4d 53 bd 3c 8e af bd 17 e2 7d bd f0 7c 00 bd
       -0.05158725 -0.08572051 -0.061983194 -0.03136915

arith.constant8 f4 [32]
000000 dd dd 47 bc 97 c2 ff bb 71 7b 19 3c d1 9f de bc
       -0.012198892 -0.0078051793 0.00936781 -0.027175816
000010 ab cb 5d 3d d7 13 a1 bc 49 3a 9b 3d 3d d2 67 bc
       0.05414931 -0.01966278 0.075794764 -0.014149246
000020 0a 5f 2b bd 48 d4 a5 bc 27 87 44 bd 23 d5 d9 bd
       -0.041838683 -0.020242825 -0.047980454 -0.10636356
000030 26 b3 a5 bd ad eb f0 3c 3f ea d4 bc 22 9b 8d 3d
       -0.080908105 0.029409254 -0.025990603 0.06914355
000040 e4 f3 5b bd 30 96 85 3d c3 8d 0c bd a0 58 aa bc
       -0.05369939 0.065227866 -0.034314882 -0.020794213
000050 aa 31 a6 bc b4 ed c9 bc f6 5e 02 3c a3 a7 42 3c
       -0.020287354 -0.024649478 0.007957211 0.011880788
000060 4a 71 ab bc 2c 32 07 bd 7f 34 b4 bd 65 36 1e be
       -0.020928044 -0.033006832 -0.08799075 -0.15450437
000070 86 1c a2 bd 55 63 52 bc 0d 9f 9c bc 4e 02 b8 bd
       -0.07915597 -0.012841065 -0.01911881 -0.089848146

tfl.pseudo_qconst i1 [64, 3, 3, 32]
000000 c2 b3 cf d4 b6 b4 d5 2f 2c e6 cb 04 ed a1 4c fe
       -62 -77 -49 -44 -74 -76 -43 47 44 -26 -53 4 -19 -95 76 -2
000010 43 01 af c7 e8 ba f8 b4 b1 32 24 04 38 1d 27 be
       67 1 -81 -57 -24 -70 -8 -76 -79 50 36 4 56 29 39 -66
000020 a6 be 98 0e af dc 0b 90 d7 3d 34 47 e4 08 2a ab
       -90 -66 -104 14 -81 -36 11 -112 -41 61 52 71 -28 8 42 -85
000030 d9 8e e2 87 1d e1 f4 c3 cd 34 2a b4 0f 1b a0 f6
       -39 -114 -30 -121 29 -31 -12 -61 -51 52 42 -76 15 27 -96 -10
000040 3c 13 19 ac ca ba 0d bc bf 02 d9 1b cc 81 da ff
       60 19 25 -84 -54 -70 13 -68 -65 2 -39 27 -52 -127 -38 -1
000050 32 9f cf e6 13 a1 e5 a7 ba fc 1c ab ea 2e bc 21
       50 -97 -49 -26 19 -95 -27 -89 -70 -4 28 -85 -22 46 -68 33
000060 b6 cc a6 f9 e4 e4 a2 a1 2b eb c4 ba 1b da 28 b3
       -74 -52 -90 -7 -28 -28 -94 -95 43 -21 -60 -70 27 -38 40 -77
000070 bd b5 1b d6 c0 b7 c4 c5 44 24 26 b3 df fb e6 c3
       -67 -75 27 -42 -64 -73 -60 -59 68 36 38 -77 -33 -5 -26 -61
000080 ea ad 0c 32 2e b7 2d a6 f9 44 28 1b ce af 04 e2
       -22 -83 12 50 46 -73 45 -90 -7 68 40 27 -50 -81 4 -30
000090 19 92 db aa fa ea 17 c5 d2 26 40 46 0e 4a 3e 05
       25 -110 -37 -86 -6 -22 23 -59 -46 38 64 70 14 74 62 5
0000a0 fd 01 b3 9e 25 e1 19 3e 02 cd a9 ea 45 26 e8 e5
       -3 1 -77 -98 37 -31 25 62 2 -51 -87 -22 69 38 -24 -27
0000b0 44 e0 e8 f8 01 a5 fd c8 b8 c6 40 08 11 38 3a aa
       68 -32 -24 -8 1 -91 -3 -56 -72 -58 64 8 17 56 58 -86
0000c0 ad b8 1e 22 c5 36 22 ec c6 af 40 f2 09 b0 0c 02
       -83 -72 30 34 -59 54 34 -20 -58 -81 64 -14 9 -80 12 2
0000d0 40 8c ea 8d f8 c1 ed d0 3d b7 ff e2 3b de 27 c7
       64 -116 -22 -115 -8 -63 -19 -48 61 -73 -1 -30 59 -34 39 -57
0000e0 eb fb b5 29 2b 36 3f e0 16 d5 ef f2 cb 07 d1 af
       -21 -5 -75 41 43 54 63 -32 22 -43 -17 -14 -53 7 -47 -81
0000f0 cc d0 bc e2 49 c4 b9 14 2d 15 c4 31 bc b1 a3 e4
       -52 -48 -68 -30 73 -60 -71 20 45 21 -60 49 -68 -79 -93 -28

tfl.pseudo_qconst1 i1 [10, 9216]
000000 f8 02 f9 fa 04 ff ec fa d7 f9 f8 eb 16 03 fe f9
       -8 2 -7 -6 4 -1 -20 -6 -41 -7 -8 -21 22 3 -2 -7
000010 ff f7 16 07 00 ff f1 f1 01 e2 f2 f9 e4 f6 f7 00
       -1 -9 22 7 0 -1 -15 -15 1 -30 -14 -7 -28 -10 -9 0
000020 f9 f7 da fd fb fb f8 fe f9 fb 03 03 08 fa 09 f7
       -7 -9 -38 -3 -5 -5 -8 -2 -7 -5 3 3 8 -6 9 -9
000030 f9 fb e4 02 ff fa 03 fb 10 fb fb 03 fc 05 f9 f3
       -7 -5 -28 2 -1 -6 3 -5 16 -5 -5 3 -4 5 -7 -13
000040 ff fc 05 ee 15 fb e9 02 f6 ff f5 ef f7 fc f4 ff
       -1 -4 5 -18 21 -5 -23 2 -10 -1 -11 -17 -9 -4 -12 -1
000050 ef f9 d2 fa e1 ed ed eb ea e2 f9 00 ff f9 f8 06
       -17 -7 -46 -6 -31 -19 -19 -21 -22 -30 -7 0 -1 -7 -8 6
000060 f7 fc ea fc f6 f9 fe e5 10 f1 f4 df 02 fd ed fb
       -9 -4 -22 -4 -10 -7 -2 -27 16 -15 -12 -33 2 -3 -19 -5
000070 ed f5 dc fb fd f4 e8 e2 df f8 f4 fb f8 fb 06 f0
       -19 -11 -36 -5 -3 -12 -24 -30 -33 -8 -12 -5 -8 -5 6 -16
000080 fe fb fe e7 08 f8 f0 fa 07 01 f0 fd 03 fd f3 00
       -2 -5 -2 -25 8 -8 -16 -6 7 1 -16 -3 3 -3 -13 0
000090 f0 f8 f7 ff f7 f2 fc f3 f7 e8 f1 fe f8 fa 04 23
       -16 -8 -9 -1 -9 -14 -4 -13 -9 -24 -15 -2 -8 -6 4 35
0000a0 0b f9 f9 fd fb 01 01 ea f6 f7 e8 e3 01 00 e1 01
       11 -7 -7 -3 -5 1 1 -22 -10 -9 -24 -29 1 0 -31 1
0000b0 f6 f8 fe f0 fd 05 f5 ea ec 01 02 02 ff 00 02 11
       -10 -8 -2 -16 -3 5 -11 -22 -20 1 2 2 -1 0 2 17
0000c0 fc 00 01 e8 04 e9 03 00 fd f6 fe f3 ff 02 fe fa
       -4 0 1 -24 4 -23 3 0 -3 -10 -2 -13 -1 2 -2 -6
0000d0 f0 ee e5 f5 ef f0 e9 e1 15 fd e1 fb fc f4 f7 ff
       -16 -18 -27 -11 -17 -16 -23 -31 21 -3 -31 -5 -4 -12 -9 -1
0000e0 0a ec eb f6 00 f7 f3 f5 07 f2 f0 ee e7 fc f0 f5
       10 -20 -21 -10 0 -9 -13 -11 7 -14 -16 -18 -25 -4 -16 -11
0000f0 ff f7 e2 01 07 f9 09 00 ea fe fb 0c fa f8 f1 d7
       -1 -9 -30 1 7 -7 9 0 -22 -2 -5 12 -6 -8 -15 -41
